checkpoints/net/simple_net_0.1.pt (torch_old, 251431 bytes, 18 tensors)

conv1.weight f4 [6, 3, 5, 5]
-0.18110397 0.03452062 0.08002047 0.091165304 -0.05556037 -0.17595808 0.011226863 0.14747295
0.08921921 0.11563784 -0.054772448 0.050987665 0.1933719 0.22328825 0.08305553 -0.04863067
0.22471325 0.24956448 0.22308184 0.30425242 0.048307285 0.22715257 0.30052525 0.27215713
0.35757127 -0.12117406 -0.10919959 -0.094189964 -0.1075777 0.023223374 -0.22585905 -0.11940774
-0.07271055 -0.00035211697 -0.037978828 -0.31604952 -0.20802942 0.028589258 0.033554647 0.037296012
-0.38243583 -0.1470024 -0.06512592 -0.060506426 0.005038408 -0.24267364 -0.31436375 -0.15935117
-0.014445694 -0.1325525 0.072944395 0.07947119 0.35011476 0.4711958 0.32603142 0.008855749
0.025207771 0.20487288 0.3225821 0.18842246 -0.0672203 0.036193024 0.19332835 0.24181212
0.29918167 -0.12070452 -0.12906176 0.0646727 0.17272149 -0.0111379055 -0.28410643 -0.16393588
-0.0019487555 -0.015590985 -0.10915112 0.30128366 0.2282013 0.29105672 0.20481363 0.16607836
0.30041817 0.29009798 0.22572343 0.19794352 -0.018451339 -0.041890875 0.118811 0.12777194
-0.085970245 -0.09399715 0.005916528 0.021143686 -0.10511612 -0.039987657 -0.0018004823 -0.3092243
-0.28909057 -0.2733264 -0.3005825 -0.23818967 -0.2650011 -0.12911443 -0.12001134 -0.022650246
-0.1618447 -0.28121293 -0.18457375 -0.27397415 -0.21673454 -0.089018665 -0.15588467 -0.26044357
-0.20788719 -0.09315864 -0.123079136 -0.075880334 -0.07856413 0.007323408 0.10140707 -0.068443924
-0.08169883 -0.28619432 -0.31087464 -0.25453323 -0.111604445 -0.036594547 -0.12953159 -0.089868195
-0.16841705 -0.056306683 -0.070250444 -0.07532203 -0.036686264 -0.123885624 0.051994137 0.045832947
-0.064725205 -0.035145 0.07376775 0.16110413 0.27824137 0.35865757 0.3424107 0.27429
0.32018146 -0.004074359 -0.018791493 0.083745465 0.15452118 0.08249843 -0.12865889 -0.26248708
-0.35003576 -0.33554143 0.020927787 0.12230761 0.28955752 0.0753303 -0.0055501596 -0.037265025
0.11124268 0.5483284 0.6672517 0.36844438 0.030203953 -0.08485587 -0.35627237 -0.28925404
0.054803923 0.08074465 0.07529696 -0.21888822 -0.14479068 -0.075809866 0.36107492 0.16060792
-0.08373432 -0.16212432 -0.050071303 0.03337294 0.245653 0.22246055 0.2557267 0.029034808
0.070801154 0.21481343 0.53965765 0.4740136 0.38693324 0.07747902 -0.17573261 -0.41583517
-0.30784696 -0.25849187 -0.045754768 0.01534339 -0.40066612 -0.3771598 -0.21310551 0.12735389
0.11194178 -0.14019334 -0.1068736 0.024072364 -0.037538346 0.15102196 0.26464027 0.20133351
0.09319832 -0.17316629 0.015293495 0.34533715 0.519547 0.18679513 -0.14352505 -0.15873973
-0.31964502 -0.29039004 -0.10363519 0.004120649 0.10883534 -0.1339871 -0.3050822 -0.20559737
0.14904085 -0.2745921 -0.50883496 -0.4436537 -0.22483765 -0.18111537 -0.17473756 -0.24099351
-0.1526017 -0.06710386 -0.14658591 0.020383649 0.07155543 0.2566976 0.31396613 0.18243268
0.06264772 0.3553775 0.32857507 0.3201589 0.23404829 0.5167071 0.36645162 0.082613975
0.015324713 -0.040492237 -0.13206483 -0.15306799 -0.3261113 -0.17544621 -0.060581304 -0.012071287
00000000: 5273 39be 7e65 0d3d c6e1 a33d e0b4 ba3d
00000010: 4593 63bd 5b2e 34be e0f0 373c 2603 173e
00000020: 90b8 b63d 88d3 ec3d 1359 60bd 71d8 503d
00000030: 4903 463e ada5 643e 0519 aa3d f430 47bd
00000040: 3b1b 663e d58d 7f3e 916f 643e f9c6 9b3e
00000050: dcdd 453d af9a 683e 72de 993e 2e58 8b3e
00000060: 9513 b73e 1b2a f8bd 09a4 dfbd abe6 c0bd
00000070: b251 dcbd f23e be3c 9847 67be 0c8c f4bd
00000080: 45e9 94bd 579c b8b9 b08f 1bbd 3ed1 a1be
00000090: aa05 55be 0534 ea3c 9970 093d b4c3 183d
000000a0: a1ce c3be cc87 16be bd60 85bd 96d5 77bd
000000b0: 3b19 a53b 707f 78be 49f4 a0be f42c 23be
000000c0: a2ad 6cbc d8bb 07be df63 953d cbc1 a23d
000000d0: 3e42 b33e 9340 f13e 97ed a63e b417 113c
000000e0: 8780 ce3c 32ca 513e 7b29 a53e d1f1 403e
000000f0: ccaa 89bd 233f 143d def7 453e 999d 773e
00000100: 572e 993e ee33 f7bd c428 04be 1f73 843d
00000110: e7dd 303e c37b 36bc 6676 91be cfde 27be
00000120: 626d ffba 5571 7fbc 9f8a dfbd da41 9a3e
00000130: 9aad 693e 6305 953e aaba 513e 7210 2a3e
00000140: 69d0 993e b987 943e 0b24 673e b5b1 4a3e
00000150: 4327 97bc c495 2bbd 2e53 f33d a6d6 023e
00000160: 2b11 b0bd 9481 c0bd 6fdf c13b 8635 ad3c
00000170: 1f47 d7bd 19ca 23bd 29fe ebba a652 9ebe
00000180: ae03 94be 70f1 8bbe f3e5 99be fee7 73be
00000190: 39ae 87be 9336 04be 81c8 f5bd 028d b9bc
000001a0: 9eba 25be 24fb 8fbe e700 3dbe 5746 8cbe
000001b0: a9ef 5dbe 6b4f b6bd 3ba0 1fbe dc58 85be
000001c0: 61e0 54be f5c9 bebd ea10 fcbd 2667 9bbd
000001d0: 3be6 a0bd 33f9 ef3b 83ae cf3d 542c 8cbd
000001e0: b751 a7bd 1088 92be f62a 9fbe 2e52 82be
000001f0: df90 e4bd 2ae4 15bd eea3 04be d10c b8bd
00000200: 8575 2cbe d6a1 66bd 77df 8fbd 7042 9abd
00000210: 5644 16bd bfb7 fdbd cef7 543d 54bb 3b3d
00000220: a68e 84bd 34f4 0fbd 8c13 973d 7bf8 243e
00000230: a775 8e3e f7a1 b73e 7550 af3e bd6f 8c3e
00000240: d3ee a33e 3382 85bb 9ef0 99bc be82 ab3d
00000250: cd3a 1e3e f0f4 a83d 28bf 03be b564 86be
00000260: e337 b3be 16cc abbe c070 ab3c 6a7c fa3d
00000270: e240 943e c646 9a3d 1dde b5bb 36a3 18bd
00000280: 34d3 e33d 405f 0c3f 02d1 2a3f bea4 bc3e
00000290: 486e f73c eac8 adbd 5569 b6be 1b19 94be
000002a0: 147a 603d 735d a53d 4b35 9a3d 3c24 60be
000002b0: 0244 14be 3442 9bbd d0de b83e 6776 243e
000002c0: e67c abbd eb03 26be 9117 4dbd 10b2 083d
000002d0: 768c 7b3e b3cc 633e 9cee 823e 68da ed3c
000002e0: 3200 913d 0df8 5b3e 0127 0a3f e9b1 f23e
000002f0: 1d1c c63e 52ad 9e3d 40f3 33be 59e8 d4be
00000300: 1e9e 9dbe 0c59 84be 5a69 3bbd d862 7b3c
00000310: 1c24 cdbe 171b c1be 5538 5abe 0f69 023e
00000320: bb41 e53d d88e 0fbe 8ce0 dabd 6833 c53c
00000330: cfc1 19bd 80a5 1a3e ee7e 873e 5f2a 4e3e
00000340: c3de be3d 8152 31be 9191 7a3c 08d0 b03e
00000350: 0801 053f 3947 3f3e 3bf8 12be ab8c 22be
00000360: 83a8 a3be 01ae 94be b03e d4bd 8206 873b
00000370: 10e5 de3d ea33 09be bc33 9cbe 1e88 52be
00000380: 2a9e 183e 5697 8cbe 0243 02bf 9426 e3be
00000390: d73b 66be 4f76 39be 67ee 32be 01c7 76be
000003a0: 9f43 1cbe c06d 89bd 9e1a 16be 9cfb a63c
000003b0: a78b 923d de6d 833e 2bc0 a03e a2cf 3a3e
000003c0: 734d 803d 0af4 b53e fe3a a83e deeb a33e
000003d0: 5baa 6f3e eb46 043f 8c9f bb3e 8431 a93d
000003e0: 8114 7b3c 30db 25bd 013c 07be dbbd 1cbe
000003f0: 0ff8 a6be 2ca8 33be 1a24 78bd a6c6 45bc

conv1.bias f4 [6]
-0.03939575 -0.017566144 -0.05975946 0.100868136 0.10884181 -0.003878822
00000000: 705d 21bd e0e6 8fbc 56c6 74bd f493 ce3d
00000010: 74e8 de3d d633 7ebb

batchnoorm1.weight f4 [6]
0.8367778 0.9330623 1.1195235 1.015222 1.2785833 0.80514073
00000000: 1237 563f 2cdd 6e3f 8c4c 8f3f cbf2 813f
00000010: 9ea8 a33f b41d 4e3f

batchnoorm1.bias f4 [6]
0.5698269 0.14555079 -0.018215807 0.08648132 0.014600375 0.53583723
00000000: 2de0 113f 440b 153e 5139 95bc 1e1d b13d
00000010: 6936 6f3c a12c 093f

batchnoorm1.running_mean f4 [6]
-0.0914653 -0.09572136 -0.046787824 0.0928202 0.111945845 -0.3828094
00000000: 2952 bbbd 8f09 c4bd 97a4 3fbd 8418 be3d
00000010: dd43 e53d 98ff c3be

batchnoorm1.running_var f4 [6]
1.7935412 0.72590685 1.1970289 1.6442561 1.1627027 2.2387118
00000000: c292 e53f 08d5 393f 3e38 993f fc76 d23f
00000010: 71d3 943f 0e47 0f40

conv2.weight f4 [16, 6, 5, 5]
0.014266382 -0.12469303 0.06322636 0.06677147 0.026322067 -0.06592842 -0.058266416 0.21265136
-0.094061926 0.05746507 -0.08321107 -0.18571216 0.22451395 -0.11676454 0.10152475 -0.085359186
-0.10033571 0.13549803 -0.11558245 0.06615162 -0.17335694 -0.0617641 0.023422787 -0.08781128
-0.09304285 0.22308303 0.11345819 0.2804336 0.1246861 0.16010322 -0.024007278 -0.016085185
0.041088667 -0.17262329 0.0037071952 -0.0152813895 -0.013507647 0.055408686 0.010815125 -0.006453259
0.09656316 0.030802812 0.055153627 -0.007489301 -0.0027769485 -0.08482575 -0.045627236 -0.032390747
0.03301189 -0.08546626 0.04498659 -0.0970998 -0.061773866 -0.036583122 -0.01826721 -0.08787527
-0.12605268 -0.14634867 -0.104090214 -0.09338986 -0.034006596 0.0025768187 -0.006299867 -0.078605495
-0.10345222 -0.0110001955 -0.0057406523 0.044844363 -0.02964196 -0.11584995 -0.078288406 -0.13021564
-0.13009821 -0.030103525 -0.18953332 0.2034747 0.029667953 0.041524336 0.11156888 0.036739126
0.025076138 -0.1287816 -0.066910535 0.064399734 -0.041830186 0.038050737 -0.0013863047 -0.04593715
-0.06626915 -0.008930462 0.14943543 0.104616895 0.06107642 -0.096981235 -0.062287986 0.095269874
0.1152792 0.0071667805 -0.09094897 -0.01940216 0.0011092726 0.27456158 -0.04275994 0.2906761
0.09991615 0.022220073 0.28726465 -0.19993123 0.2703416 -0.04114299 0.030639753 0.17893228
-0.22559859 0.34842703 -0.1323723 0.12347377 0.12204046 -0.19377933 0.22419795 -0.12871863
-0.019294975 -0.15578875 -0.30557883 -0.032325353 -0.1093285 -0.08623893 -0.03503028 -0.02341441
0.0560444 -0.015381282 0.04760714 0.09022653 -0.061127566 0.04678182 0.07734666 -0.04477386
0.03171292 -0.05727052 0.14938627 0.052252345 0.09275629 -0.01779967 0.011282559 -0.03518271
-0.10102871 -0.08281813 -0.08393152 -0.0067571653 0.017798413 -0.05424597 0.047251817 -0.014808415
-0.12471741 -0.071101904 0.01509017 0.14332154 0.07856238 -0.20514278 -0.030852837 0.03293073
-0.024688397 0.04544511 0.036651373 -0.07190373 0.017684689 -0.06643352 -0.027168436 0.113939606
0.061466563 -0.041158047 -0.21597034 -0.22996023 -0.09537319 -0.052742045 -0.05845384 0.06670927
0.044779778 -0.06388505 -0.051269997 -0.08427503 0.14873166 0.124714375 0.06694216 0.06612154
-0.035573456 0.14327556 0.16789292 0.021923764 0.017290816 -0.073672675 0.20401189 0.12613419
0.11343685 0.17011063 -0.10710269 0.15397906 -0.013358393 -0.073620014 0.07819323 -0.11225135
0.08751554 -0.030871777 -0.08033404 0.16190547 0.07092832 0.03818486 -0.10565286 -0.18210919
0.080084324 0.15425536 0.09659053 0.15711097 -0.041063536 -0.09254118 -0.07497184 -0.0984567
0.074427105 0.3900999 0.2481963 0.018399362 0.09101068 0.060387213 0.18097943 0.3309574
0.07681229 -0.012607009 -0.08116788 -0.09775892 0.014850248 -0.027683431 -0.13946015 -0.069954485
0.042763844 -0.11783864 -0.06553024 -0.0911973 -0.22249076 -0.13059786 -0.012221263 -0.10494188
-0.039572306 -0.13075697 -0.2547789 -0.18785669 -0.061141036 0.033704672 0.13720314 -0.014743924
-0.14885181 -0.026246203 -0.030845532 0.06102438 -0.06132472 -0.049432434 -0.035611197 -0.12497303
00000000: 8bbd 693c 0f5f ffbd d27c 813d 7bbf 883d
00000010: 60a1 d73c 7b05 87bd c4a8 6ebd 47c1 593e
00000020: 8aa3 c0bd 7e60 6b3d 916a aabd 542b 3ebe
00000030: fce6 653e 3f22 efbd 35ec cf3d ccd0 aebd
00000040: cf7c cdbd ffbf 0a3e 7eb6 ecbd 807a 873d
00000050: 7b84 31be 5afc 7cbd 25e1 bf3c 66d6 b3bd
00000060: 408d bebd e16f 643e c45c e83d fe94 8f3e
00000070: 6d5b ff3d 19f2 233e e9aa c4bc 14c5 83bc
00000080: 974c 283d 29c4 30be 6af4 723b cb5e 7abc
00000090: 2e4f 5dbc 38f4 623d ec31 313c dc75 d3bb
000000a0: e8c2 c53d 2e56 fc3c c5e8 613d cf68 f5bb
000000b0: 77fd 35bb 1fb9 adbd a0e3 3abd 29ac 04bd
000000c0: 7a37 073d ef08 afbd dc43 383d 43dc c6bd
000000d0: 9806 7dbd 2fd8 15bd 1ea5 95bc f3f7 b3bd
000000e0: f413 01be 6ddc 15be 402d d5bd 2f43 bfbd
000000f0: 804a 0bbd d8df 283b 1d6f cebb ebfb a0bd
00000100: c2de d3bd 2a3a 34bc 151c bcbb b9ae 373d
00000110: b2d3 f2bc bd42 edbd ac55 a0bd 4057 05be
00000120: 7738 05be ab9b f6bc 0615 42be ac5b 503e
00000130: 350a f33c 6c15 2a3d 3a7e e43d c47b 163d
00000140: 796c cd3c 53df 03be 6408 89bd 02e4 833d
00000150: 2156 2bbd 17db 1b3d abb4 b5ba 9828 3cbd
00000160: 1fb8 87bd 1351 12bc 9a05 193e 6241 d63d
00000170: 452b 7a3d 199e c6bd b021 7fbd da1c c33d
00000180: 8017 ec3d 50d7 ea3b 7443 babd 47f1 9ebc
00000190: 0365 913a 5693 8c3e 0c25 2fbd 7fd3 943e
000001a0: d7a0 cc3d df06 b63c 5a14 933e c6ba 4cbe
000001b0: 376a 8a3e 8d85 28bd 3800 fb3c 063a 373e
000001c0: 5103 67be 0765 b23e 9b8c 07be d1df fc3d
000001d0: 59f0 f93d 176e 46be 2694 653e d1ce 03be
000001e0: 7f10 9ebc 1687 1fbe d474 9cbe 9767 04bd
000001f0: 9fe7 dfbd 099e b0bd e97b 0fbd 94cf bfbc
00000200: d08e 653d c601 7cbc b4ff 423d b0c8 b83d
00000210: e660 7abd 4b9e 3f3d ed67 9e3d cc64 37bd
00000220: 68e5 013d 7e94 6abd b7f8 183e 8e06 563d
00000230: 03f7 bd3d 9dd0 91bc 7bda 383c bf1b 10bd
00000240: 24e8 cebd 8d9c a9bd 4ae4 abbd 366b ddbb
00000250: facd 913c 0631 5ebd 1f8b 413d ff9e 72bc
00000260: d76b ffbd e09d 91bd c33c 773c e2c2 123e
00000270: 50e5 a03d f310 52be 17bf fcbc 60e2 063d
00000280: 523f cabc a724 3a3d c01f 163d 4342 93bd
00000290: 7bdf 903c 4c0e 88bd 5790 debc 2b59 e93d
000002a0: 5dc4 7b3d 5795 28bd 5427 5dbe b27a 6bbe
000002b0: 0553 c3bd 0b08 58bd 4b6d 6fbd df9e 883d
000002c0: 006b 373d 2ad6 82bd 7d00 52bd 6398 acbd
000002d0: 1d4d 183e 406a ff3d f918 893d bb6a 873d
000002e0: 79b5 11bd d4b6 123e 1fec 2b3e 7799 b33c
000002f0: 78a5 8d3c b3e1 96bd 7ee8 503e 5229 013e
00000300: 9451 e83d 7b31 2e3e a858 dbbd b0ac 1d3e
00000310: 29dd 5abc 17c6 96bd c623 a03d 09e4 e5bd
00000320: 593b b33d cfe6 fcbc 2c86 a4bd 8cca 253e
00000330: de42 913d ba67 1c3d 8760 d8bd d57a 3abe
00000340: 4003 a43d 1ef5 1d3e 41d1 c53d b3e1 203e
00000350: 3d32 28bd 3b86 bdbd d68a 99bd aba3 c9bd
00000360: 3d6d 983d 2dbb c73e 2c27 7e3e 42ba 963c
00000370: cf63 ba3d 9558 773d ac52 393e 4073 a93e
00000380: c34f 9d3d a18d 4ebc 583b a6bd d435 c8bd
00000390: 744e 733c 5dc8 e2bc a4ce 0ebe 4c44 8fbd
000003a0: 2429 2f3d 6355 f1bd b834 86bd a6c5 babd
000003b0: 9ed4 63be 72bb 05be b13b 48bc c5eb d6bd
000003c0: 9216 22bd 28e5 05be 6172 82be 815d 40be
000003d0: 066f 7abd e90d 0a3d fb7e 0c3e 8090 71bc
000003e0: 9c6c 18be 4702 d7bc c5af fcbc b3f4 793d
000003f0: a12f 7bbd aa79 4abd 0cdd 11bd dcf1 ffbd

conv2.bias f4 [16]
0.010446012 -0.020881701 0.078299314 0.017128617 -0.07537743 0.02401273 -0.00049410743 -0.0811864
-0.041397117 0.06893845 -0.07295385 0.071641356 0.023230746 -0.08086622 -0.03742434 -0.051391736
00000000: c025 2b3c 1a10 abbc 645b a03d 5051 8c3c
00000010: 7b5f 9abd 58b6 c43c fd86 01ba 0e45 a6bd
00000020: 0690 29bd 9a2f 8d3d d468 95bd b4b8 923d
00000030: 684e be3c 309d a5bd 444a 19bd 2480 52bd

batchnoorm2.weight f4 [16]
1.0523953 1.0319517 1.1990943 1.0576218 0.96951383 0.9945031 1.1097537 0.8888635
1.0791426 1.130138 1.0017524 1.0169462 1.287851 0.9000417 0.91493803 0.88064307
00000000: e4b4 863f fe16 843f ec7b 993f 2760 873f
00000010: 0f32 783f c197 7e3f 690c 8e3f 8f8c 633f
00000020: 5821 8a3f 5da8 903f 6c39 803f 4b2b 823f
00000030: 4dd8 a43f 2269 663f 6139 6a3f d371 613f

batchnoorm2.bias f4 [16]
-0.4180198 -0.33148292 -0.19530329 -0.325614 -0.3034634 -0.17113306 -0.25803506 -0.11576069
-0.17029381 -0.23313364 -0.09530795 -0.13749696 -0.40217865 -0.097554505 -0.08699407 -0.13277107
00000000: b106 d6be 21b8 a9be 96fd 47be e1b6 a6be
00000010: 8e5f 9bbe 813d 2fbe 2c1d 84be f113 edbd
00000020: 8061 2ebe 96ba 6ebe d130 c3bd 01cc 0cbe
00000030: 5cea cdbe a8ca c7bd f229 b2bd 24f5 07be

batchnoorm2.running_mean f4 [16]
-0.3044957 0.7111439 -3.9500964 1.0089153 -1.0433623 -1.0407574 -1.2027345 1.4729717
-0.21083592 -2.6065438 3.2296164 -1.5364684 -0.99227065 0.69246924 -0.82825494 0.008108036
00000000: dce6 9bbe 870d 363f 61ce 7cc0 2324 813f
00000010: e58c 85bf 8a37 85bf 34f3 99bf 568a bc3f
00000020: 5fe5 57be 9dd1 26c0 09b2 4e40 ffaa c4bf
00000030: 7305 7ebf aa45 313f 8408 54bf 91d7 043c

batchnoorm2.running_var f4 [16]
3.0789952 2.1813362 3.3376236 3.140933 2.1933255 1.8352308 3.2601311 3.1655324
3.2923288 3.8952494 2.7287054 2.6626294 3.7398973 2.0870461 2.1981373 2.0475478
00000000: 420e 4540 039b 0b40 a09b 5540 0c05 4940
00000010: 725f 0c40 d8e8 ea3f fda5 5040 1598 4a40
00000020: 84b5 5240 c44b 7940 1ca3 2e40 8568 2a40
00000030: 7a5a 6f40 2a92 0540 48ae 0c40 060b 0340

fc1.weight f4 [120, 400]
0.083055295 0.014420422 0.07947478 0.08081987 0.01124827 -0.048097588 0.023003027 0.015676957
-0.008678122 0.037686553 -0.019387739 -0.042570204 -0.037199065 -0.016331593 0.051993236 0.05325123
-0.020125818 0.04687734 0.0054383725 -0.011787833 -0.09389404 -0.017343557 0.039648842 0.02548805
0.056027375 -0.023530163 0.055354867 -0.018201487 -0.01976216 0.042052623 -0.034212943 0.09087866
-0.005555029 -0.031366974 -0.0076380093 0.011813451 0.0028027357 -0.046882614 -0.09777712 -0.085715674
0.06127995 0.0015500843 -0.048922252 -0.09452868 -0.0068392404 0.1655936 0.09877025 0.08902334
0.06962115 0.050542966 -0.014654023 -0.055215456 -0.052426256 -0.06633224 -0.06595153 0.017519481
-0.015623277 0.052110843 0.062457073 -0.056946475 -0.057334192 0.006550448 0.06682223 0.039728656
-0.024563318 0.009919756 0.017076815 -0.052057896 0.012505103 0.020544643 0.04016801 -0.05897521
0.007832979 -0.0073432196 0.004124475 0.012374825 0.043054346 -0.016971933 0.022260321 0.03319908
0.015992863 0.008469006 -0.02896814 -0.08900624 0.0068747867 -0.049640875 0.063899085 -0.0026668508
0.032616336 0.03861247 0.055434413 0.030279415 0.07448069 0.037140522 -0.02400372 0.029674387
0.09738961 0.029458838 0.028353404 -0.05804038 -0.0049309116 0.016044011 0.008906098 0.026389893
-0.0076121674 -0.08483703 -0.007744843 0.005993626 0.00402318 -0.025816651 -0.02374499 0.03777961
0.0004200153 -0.028190136 0.08261836 -0.033887953 0.054219324 0.048091926 0.052929424 0.08220443
0.013488914 -0.03200713 -0.028438147 0.07335033 0.2497179 -0.001932077 -0.04089164 -0.043089703
0.0004168344 0.051885203 -0.08663284 0.048253167 -0.0047558304 0.056686677 0.06485281 -0.05292088
0.024871374 0.050539073 0.062387124 0.0701782 -0.02565132 0.037245903 0.034373555 0.04407462
-0.027364958 -0.068811096 -0.0122342985 0.005172709 -0.02891694 -0.020529745 -0.07836476 -0.07482329
-0.005931679 0.020744422 0.10838521 -0.07079513 -0.018205546 -0.06646086 -0.03794804 0.006774124
0.05887736 0.06932837 0.024330739 0.022591457 0.03395291 0.06378099 0.047461834 -0.0033329765
0.0063030273 -0.00080215203 0.11388046 -0.033389892 -0.03068467 0.033813868 -0.05655225 -0.024764419
0.08523299 0.123622976 -0.010361666 -0.012139196 0.015919693 -0.0060250405 0.02302359 0.08350551
0.001819404 0.058027297 -0.008852889 0.0024297622 0.022334522 -0.106989376 0.036612015 0.06792424
0.06746745 -0.0014679818 -0.060573 0.042026218 -0.059044443 -0.031363327 0.011643594 -0.048287205
-0.011101435 -0.052412543 -0.053976554 0.06289065 0.115165904 -0.029365528 0.005550454 -0.07079837
0.028499631 0.031921856 -0.039076194 0.017118663 0.01467394 -0.07709841 0.0038668327 0.022607686
0.0079535395 0.09643339 -0.051772047 -0.043644994 -0.050249245 -0.01146112 -0.048372984 -0.032271605
0.015018396 -0.045849077 -0.058178946 0.055137556 0.04908889 -0.0068351813 -0.048153587 -0.01998945
-0.022220278 0.06877316 0.011932863 -0.04094865 0.0044007525 0.009925601 0.018164197 -0.042853564
0.03624884 0.015859986 0.013340616 -0.03219003 0.014474218 -0.029951181 0.0012287457 -0.10992643
-0.0052758004 0.105395705 0.108630896 0.019214714 -0.052781846 -0.053798795 -0.07572411 0.07902326
00000000: e518 aa3d a243 6c3c acc3 a23d e384 a53d
00000010: aa4a 383c fa01 45bd d870 bc3c f66c 803c
00000020: af2e 0ebc 375d 1a3d 09d3 9ebc 185e 2ebd
00000030: 0c5e 18bd d5c9 85bc dcf6 543d f61d 5a3d
00000040: e6de a4bc 7402 403d 6034 b23b c121 41bc
00000050: 854b c0bd 1314 8ebc d366 223d 51cc d03c
00000060: f67c 653d 54c2 c0bc c9bb 623d 491b 95bc
00000070: 41e4 a1bc 5f3f 2c3d df22 0cbd 971e ba3d
00000080: f606 b6bb a87a 00bd 4448 fabb 348d 413c
00000090: 1aae 373b fc07 40bd 5f3f c8bd b38b afbd
000000a0: af00 7b3d 332c cb3a b362 48bd 4198 c1bd
000000b0: b51b e0bb 5e91 293e 0f48 ca3d de51 b63d
000000c0: 8995 8e3d 2406 4f3d 6d17 70bc 9a29 62bd
000000d0: eabc 56bd 33d9 87bd 9911 87bd 0485 8f3c
000000e0: c6f8 7fbc 2e72 553d fdd2 7f3d b540 69bd
000000f0: 42d7 6abd 24a5 d63b 18da 883d 84ba 223d
00000100: 0339 c9bc 7986 223c ade4 8b3c a93a 55bd
00000110: 34e2 4c3c 3d4d a83c 3687 243d fd8f 71bd
00000120: e555 003c 649f f0bb 9b26 873b c7bf 4a3c
00000130: c159 303d b908 8bbc 475b b63c c2fb 073d
00000140: 7703 833c 96c1 0a3c 984e edbc e748 b6bd
00000150: e445 e13b 3b54 4bbd 86dd 823d 55c6 2ebb
00000160: b598 053d 1c28 1e3d 320f 633d 890c f83c
00000170: 5589 983d a920 183d 73a3 c4bc b317 f33c
00000180: 3474 c73d a953 f13c 6645 e83c c0bb 6dbd
00000190: 7c93 a1bb bb6e 833c e2ea 113c 9e2f d83c
000001a0: 7d6f f9bb 09bf adbd 74c8 fdbb 2e66 c43b
000001b0: e1d4 833b 717d d3bc da84 c2bc cbbe 1a3d
000001c0: 8035 dc39 00ef e6bc d133 a93d 18ce 0abd
000001d0: 1515 5e3d 0afc 443d 86cc 583d cc5a a83d
000001e0: 9b00 5d3c e919 03bd 1ef7 e8bc b338 963d
000001f0: 0db6 7f3e bf3d fdba fe7d 27bd d47e 30bd
00000200: 918a da39 9485 543d 8f6c b1bd 1da5 453d
00000210: ccd6 9bbb 4a30 683d 8dd1 843d 91c3 58bd
00000220: 0dbf cb3c 0f02 4f3d a489 7f3d 97b9 8f3d
00000230: b822 d2bc 298f 183d 49cb 0c3d 9787 343d
00000240: 7a2c e0bc d5ec 8cbd 5e72 48bc d47f a93b
00000250: 38e3 ecbc ff2d a8bc b47d a0bd f43c 99bd
00000260: 885e c2bb 35f0 a93c 11f9 dd3d 0afd 90bd
00000270: cc23 95bc a21c 88bd 676f 1bbd 79f9 dd3b
00000280: 6329 713d 08fc 8d3d 4251 c73c b811 b93c
00000290: 3512 0b3d 9c9f 823d 5767 423d 116e 5abb
000002a0: a089 ce3b 8347 52ba 293a e93d d7c3 08bd
000002b0: 6b5e fbbc 6980 0a3d 55a3 67bd c0de cabc
000002c0: a28e ae3d 0b2e fd3d fac3 29bc 7ae3 46bc
000002d0: 046a 823c b46d c5bb f89b bc3c f004 ab3d
000002e0: 1179 ee3a 08ae 6d3d b50b 11bc a53c 1f3b
000002f0: e3f6 b63c 3f1d dbbd 7bf6 153d dd1b 8b3d
00000300: 602c 8a3d 4c69 c0ba 651b 78bd af23 2c3d
00000310: 96d8 71bd d576 00bd c6c4 3e3c cec8 45bd
00000320: cbe2 35bc 89ae 56bd 8516 5dbd d0cc 803d
00000330: 1adc eb3d fa8f f0bc 95e0 b53b bcfe 90bd
00000340: 0f78 e93c 7ec0 023d 5c0e 20bd 703c 8c3c
00000350: f76a 703c c5e5 9dbd b06a 7d3b c133 b93c
00000360: 904f 023c df7e c53d ed0e 54bd 18c5 32bd
00000370: 27d2 4dbd 6cc7 3bbc c022 46bd 3b2f 04bd
00000380: b80f 763c 3ecc 3bbd 0c4d 6ebd ebd7 613d
00000390: 6f11 493d a8f9 dfbb b23c 45bd eac0 a3bc
000003a0: 4d07 b6bc f1d8 8c3d 0e82 433c c6b9 27bd
000003b0: 3034 903b fd9e 223c 15cd 943c 3887 2fbd
000003c0: aa79 143d cdec 813c 9992 5a3c b1d9 03bd
000003d0: 4525 6d3c 2e5c f5bc dd0d a13a 1c21 e1bd
000003e0: 9fe0 acbb b4d9 d73d e079 de3d 2d68 9d3c
000003f0: c731 58bd 205c 5cbd 3e15 9bbd f2d6 a13d

fc1.bias f4 [120]
-0.034406055 -0.019091621 -0.0051741023 -0.05311048 -0.05328099 -0.022243448 0.02182938 -0.023744654
0.100873664 -0.026525812 0.030955272 0.04228405 -0.025497114 -0.05072718 -0.059460852 0.09311564
-0.046855673 0.0010179777 -0.007243293 0.020763464 0.06806361 0.0011257607 -0.021524744 -0.009292781
-0.022180295 -0.023819022 0.012995041 0.07013998 0.019529425 0.053053424 -0.039321948 0.045264445
-0.02472393 0.10993518 0.010478378 0.031185454 0.04761387 -0.0066378033 -0.01892308 0.016375013
0.077587835 -0.023116184 0.023144925 -0.003482193 -0.008872431 0.0005008561 0.047164716 -0.0045863274
0.041279994 -0.050870683 0.04482982 -0.009816946 -0.013822772 0.047818817 -0.009014617 0.11499123
0.0843637 -0.018913914 0.040140852 -0.022207312 -0.050486185 0.03013418 -0.044229507 -0.023269938
-0.0055220686 -0.027515505 0.002176163 0.008376522 0.048420478 0.061883576 0.003745256 -0.052480407
-0.004683167 -0.032965153 0.0061000073 0.03138331 -0.037519056 -0.05859204 -0.012973864 0.023298716
0.05730968 -0.055932682 0.046388704 -0.017999915 -0.024966579 -0.01752883 0.016687673 0.03987112
0.01947485 -0.023360316 0.058877774 0.0030898782 -0.0020995818 -0.06689874 0.006602127 -0.048005912
0.08756681 -0.008105699 0.022819368 0.06883083 -0.04075611 -0.014980304 -0.0083211 -0.03574536
-0.014705528 0.029981222 -0.0014605122 0.001214056 -0.065993555 0.000561115 -0.051191803 0.010514536
0.068633884 0.08384491 -0.04080502 -0.04019138 -0.052342754 -0.042844303 0.0050060493 0.02004819
00000000: 5ded 0cbd 0866 9cbc 848b a9bb 608a 59bd
00000010: 2b3d 5abd e437 b6bc 87d3 b23c 2684 c2bc
00000020: da96 ce3d a94c d9bc e995 fd3c 0a32 2d3d
00000030: 53df d0bc 4ec7 4fbd 398d 73bd 6ab3 be3d
00000040: bceb 3fbd aa6d 853a 2559 edbb 2418 aa3c
00000050: ef64 8b3d 438e 933a a954 b0bc c040 18bc
00000060: 73b3 b5bc 1c20 c3bc 27e9 543c 8da5 8f3d
00000070: 2cfc 9f3c 8c4e 593d 0d10 21bd 3667 393d
00000080: d789 cabc b225 e13d 81ad 2b3c a378 ff3c
00000090: c306 433d ee81 d9bb 9304 9bbc e424 863c
000000a0: 5fe6 9e3d 275e bdbc 6d9a bd3c 8135 64bb
000000b0: ac5d 11bc e24b 033a ca2f 413d e748 96bb
000000c0: 3615 293d c75d 50bd 799f 373d 42d7 20bc
000000d0: e878 62bc aadd 433d 0bb2 13bc 8680 eb3d
000000e0: e0c6 ac3d 5af1 9abc bc6a 243d 1cec b5bc
000000f0: 9aca 4ebd f5db f63c 002a 35bd 99a0 bebc
00000100: 78f2 b4bb 3268 e1bc f59d 0e3b ae3d 093c
00000110: 8d54 463d a279 7d3d f872 753b b2f5 56bd
00000120: 4175 99bb 7806 07bd 92e2 c73b c98b 003d
00000130: 95ad 19bd 35fe 6fbd 5490 54bc f3dc be3c
00000140: 8ebd 6a3d ab19 65bd 1502 3e3d 8f74 93bc
00000150: b686 ccbc 9f98 8fbc 96b4 883c e64f 233d
00000160: b889 9f3c 225e bfbc d229 713d 8e7f 4a3b
00000170: 2399 09bb 3502 89bd a856 d83b d9a1 44bd
00000180: 3a56 b33d c4cd 04bc afef ba3c 2ef7 8c3d
00000190: e1ef 26bd f36f 75bc 3955 08bc ba69 12bd
000001a0: 74ef 70bc 2e9b f53c a86e bfba f620 9f3a
000001b0: a127 87bd ca17 133a 7fae 51bd 2945 2c3c
000001c0: ec8f 8c3d e1b6 ab3d 2a23 27bd b79f 24bd
000001d0: 5b65 56bd 827d 2fbd c909 a43b 1a3c a43c

fc2.weight f4 [84, 120]
0.026705883 0.0032204292 -0.07660945 -0.012857742 -0.003462228 0.024443023 -0.011483572 0.014864205
-0.003730437 0.01949164 -0.040866397 -0.0796073 0.06578211 -0.0022120127 -0.052847028 0.008539604
-0.045772757 -0.09831879 -0.053458635 0.06482659 0.07807122 0.030472908 0.008191012 -0.0016242994
0.005871894 -0.076196894 0.03945313 -0.055449925 -0.071807235 0.05776471 0.054803804 0.065528214
-0.006546371 0.094315365 -0.09018173 -0.061365806 0.017368894 0.016509065 -0.098991446 -0.026149599
-0.09291352 -0.039866358 0.06828047 -0.03352537 0.037784223 -0.03827163 0.08605944 -0.026721297
0.08548885 0.049548443 -0.059689946 0.079170175 0.048826646 0.00047455888 0.070057735 0.0794058
-0.02997903 0.0633084 0.06240653 0.024002107 -0.07601599 -0.08817977 0.031827234 -0.026102869
-0.09031763 -0.05038711 -0.07869199 0.04029627 -0.030910457 -0.044853993 0.06585456 -0.06571674
0.010085552 0.05117766 -0.061071537 -0.045618 -0.05835047 0.06295205 0.014129641 0.14445262
-0.059065543 0.07108215 -0.08772713 -0.0049783513 -0.087212086 0.014857556 -0.049695928 -0.042964477
0.094846465 0.04347064 -0.029329408 0.075889856 -0.03363124 -0.05991068 -0.08649051 0.07140856
0.036489297 -0.025432425 -0.092495024 0.037302487 0.08453898 -0.027580347 -0.066842906 -0.022323668
0.012343096 0.055100255 -0.018853156 -0.046645597 -0.072470374 0.005048967 -0.05259077 0.050005645
0.061273362 0.056493264 -0.12097902 0.036185697 -0.038769927 0.059475638 0.03611845 -0.045307145
-0.11733253 -0.046124298 0.008363419 0.05256365 0.0075298413 0.08226148 0.0039815675 0.015263759
0.040266145 -0.11237641 -0.09629734 0.06686967 -0.07431145 -0.12212549 -0.02683862 0.07778585
-0.03498607 0.14994228 0.059147175 0.053922918 -0.027071653 0.04831525 -0.043074865 -0.03891593
-0.0482751 0.046506938 0.09356979 -0.06731694 -0.033624653 0.109656714 -0.0062242663 0.01583481
0.07124205 -0.014999185 0.12976168 0.068914704 -0.027751567 -0.11680471 -0.0038902776 -0.009714034
0.0626355 0.1123066 0.004076406 -0.033830293 -0.040316496 0.08202971 -0.026576478 -0.043342922
-0.046087626 -0.110235535 0.0988867 -0.008962499 0.025474122 0.008437548 0.1017347 -0.03747655
-0.018672287 -0.005091204 0.07555534 -0.024501989 0.06525035 -0.12900086 -0.011412536 -0.08323317
0.032129243 -0.070689775 0.033135265 0.043903876 0.074444965 0.014809563 0.17375264 0.09459688
0.060267538 0.09447726 0.0072700866 -0.08647337 0.045961566 0.05614917 0.06952231 -0.12144189
-0.04496897 -0.07430244 0.07847079 -0.10656005 0.026665013 -0.121451356 -0.019287694 0.076691665
-0.0140748015 0.031434637 0.035160407 0.022398807 -0.025515841 -0.023205854 0.02528229 -0.0034718227
-0.0013001504 -0.011987669 0.17600353 0.1483713 -0.09928375 0.069839716 -0.11411138 -0.0374514
-0.065117076 0.009729329 -0.061822847 0.08778577 0.011661312 0.031883586 -0.092403285 0.010259516
0.111979485 -0.005487087 -0.0365246 0.04319778 -0.03451123 0.035535086 -0.00022488597 -0.04299912
0.024759568 -0.08162755 0.07267328 0.041577138 -0.016329035 0.03236932 0.05978749 0.05832829
-0.027634395 0.062335804 -0.030186797 0.1103034 0.00071047613 -0.090467244 -0.102797836 0.042871974
00000000: 4cc6 da3c d60d 533b 6ae5 9cbd 47a9 52bc
00000010: 8ce6 62bb bc3c c83c 9825 3cbc ff88 733c
00000020: 597a 74bb efac 9f3c 8663 27bd 2709 a3bd
00000030: c5b8 863d 6af7 10bb 2076 58bd b2e9 0b3c
00000040: 377c 3bbd 5d5b c9bd 71f7 5abd cec3 843d
00000050: cee3 9f3d 52a2 f93c 9833 063c 72e6 d4ba
00000060: 0469 c03b 1e0d 9cbd 9b99 213d 761f 63bd
00000070: ac0f 93bd b09a 6c3d f479 603d a833 863d
00000080: f182 d6bb 6a28 c13d 33b1 b8bd b65a 7bbd
00000090: 3649 8e3c 053e 873c 07bc cabd af37 d6bc
000000a0: 7249 bebd e84a 23bd a2d6 8b3d e651 09bd
000000b0: a1c3 1a3d b6c2 1cbd ef3f b03d 9fe6 dabc
000000c0: c714 af3d 4ff3 4a3d 727d 74bd f923 a23d
000000d0: 73fe 473d 37ce f839 6e7a 8f3d 829f a23d
000000e0: 9596 f5bc d6a7 813d fd9d 7f3d 11a0 c43c
000000f0: 45ae 9bbd 9897 b4bd 465d 023d afd5 d5bc
00000100: 73f8 b8bd b762 4ebd 4429 a1bd b40d 253d
00000110: ed37 fdbc d2b8 37bd c1de 863d 8096 86bd
00000120: df3d 253c aa9f 513d 2626 7abd f1d9 3abd
00000130: e700 6fbd 01ed 803d 0280 673c 63eb 133e
00000140: b6ee 71bd 8593 913d 48aa b3bd 7021 a3bb
00000150: 409c b2bd 1b6d 733c f58d 4bbd 85fb 2fbd
00000160: dd3e c23d 450e 323d 3a44 f0bc 246c 9b3d
00000170: e9c0 09bd e764 75bd f021 b1bd a73e 923d
00000180: cd75 153d a957 d0bc 086e bdbd 7eca 183d
00000190: c622 ad3d 2ef0 e1bc efe4 88bd 20e0 b6bc
000001a0: b23a 4a3c ceb0 613d ef71 9abc 740f 3fbd
000001b0: 596b 94bd ce71 a53b 6b69 57bd b8d2 4c3d
000001c0: c7f9 7a3d 7b65 673d d9c3 f7bd 7437 143d
000001d0: 37cd 1ebd ba9c 733d f1f0 133d fc93 39bd
000001e0: 0a4c f0bd d5ec 3cbd b906 093c fb4c 573d
000001f0: e3bc f63b b578 a83d cf77 823b d814 7a3c
00000200: 1dee 243d 9a25 e6bd 8a37 c5bd f7f2 883d
00000210: 9a30 98bd ee1c fabd aadc dbbc 304e 9f3d
00000220: 8e4d 0fbd 788a 193e 4f44 723d 47de 5c3d
00000230: 5fc5 ddbc 36e6 453d 456f 30bd 4f66 1fbd
00000240: 1cbc 45bd 0f7e 3e3d 85a1 bf3d 77dd 89bd
00000250: 01ba 09bd b393 e03d eef4 cbbb 01b8 813c
00000260: 5ae7 913d 24bf 75bc 3fe0 043e 2723 8d3d
00000270: 4157 e3bc 4f37 efbd 07f4 7ebb 9d27 1fbc
00000280: 0b47 803d 0101 e63d 5f93 853b a291 0abd
00000290: e922 25bd 31ff a73d eab6 d9bc 5988 31bd
000002a0: 61c6 3cbd 2bc3 e1bd 1c85 ca3d 72d7 12bc
000002b0: 1baf d03c a43d 0a3c 485a d03d 0381 19bd
000002c0: a0f6 98bc 1dd4 a6bb c2bc 9a3d 65b8 c8bc
000002d0: faa1 853d cd18 04be a5fb 3abc 2776 aabd
000002e0: f499 033d cdc5 90bd d8b8 073d 8dd4 333d
000002f0: 9a76 983d cfa3 723c 36ec 313e 02bc c13d
00000300: 18db 763d 4b7d c13d e839 ee3b f318 b1bd
00000310: 3242 3c3d acfc 653d b661 8e3d 87b6 f8bd
00000320: 6231 38bd e12b 98bd 4bb5 a03d 283c dabd
00000330: 9670 da3c 7dbb f8bd 3a01 9ebc 8510 9d3d
00000340: ff99 66bc 9bc1 003d 5c04 103d b47d b73c
00000350: 9906 d1bc 341a bebc ce1c cf3c 8587 63bb
00000360: cf69 aaba ee67 44bc 453a 343e a5ee 173e
00000370: 4755 cbbd 2008 8f3d 3ab3 e9bd a466 19bd
00000380: 1a5c 85bd c367 1f3c f439 7dbd 07c9 b33d
00000390: 160f 3f3c 5d98 023d ef3d bdbd 8717 283c
000003a0: 8055 e53d 06cd b3bb d29a 15bd 28f0 303d
000003b0: a65b 0dbd 3d8d 113d 5ecf 6bb9 d81f 30bd
000003c0: 94d4 ca3c 582c a7bd bbd5 943d ca4c 2a3d
000003d0: 78c4 85bc b195 043d bae3 743d a5e9 6e3d
000003e0: 8761 e2bc d453 7f3d 4d4a f7bc c0e6 e13d
000003f0: 3f3f 3a3a e446 b9bd ac87 d2bd 869a 2f3d

fc2.bias f4 [84]
-0.08106166 0.019597644 -0.09326191 -0.08588262 -0.049031567 -0.03840776 -0.010190181 0.0047593922
-0.020258117 0.14560737 -0.0812808 0.062191673 -0.12137201 0.05355357 0.018690538 -0.026029503
0.041598182 -0.063045666 -0.038984183 0.093611754 -0.0060548554 0.034258965 0.010433861 0.0014720229
-0.11515947 -0.052778713 -0.0120028565 -0.03739894 0.06891506 -0.012323533 -0.080766395 0.02612333
-0.010006999 -0.0074829897 -0.007435407 0.06551415 0.10299361 -0.07161795 0.0974111 -0.076105826
-0.0054094484 0.02251508 -0.039771058 0.0952487 -0.075423315 0.17759204 0.02864007 0.20523338
0.13786487 -0.07393767 -0.0044571813 0.088542156 0.09687604 -0.050080627 0.054850794 0.007197498
-0.07497808 -0.0553033 -0.02304077 -0.06855512 0.07071841 -0.0420851 0.057205617 0.038763363
-0.010185057 0.0158379 -0.08393108 0.29520002 0.07683017 0.08964767 -0.041644663 -0.09771836
0.00043579107 0.08864411 0.08671079 0.08751842 0.03665093 -0.08102604 -0.07529003 0.045681678
-0.072195664 -0.027071765 0.00034516928 0.025127422
00000000: a803 a6bd 3d8b a03c 1a00 bfbd 3ae3 afbd
00000010: 53d5 48bd 7551 1dbd b8f4 26bc adf4 9b3b
00000020: 5af4 a5bc 191a 153e 8c76 a6bd b2bc 7e3d
00000030: e391 f8bd fd5a 5b3d e61c 993c d33b d5bc
00000040: db62 2a3d 161e 81bd e1ad 1fbd 85b7 bf3d
00000050: cf67 c6bb 2153 0c3d c9f2 2a3c e4f0 c03a
00000060: bad8 ebbd 7e2e 58bd a1a7 44bc a22f 19bd
00000070: 5723 8d3d a5e8 49bc da68 a5bd 9800 d63c
00000080: 65f4 23bc de33 f5bb b7a4 f3bb 482c 863d
00000090: 50ee d23d 6fac 92bd 797f c73d 5fdd 9bbd
000000a0: be41 b1bb 8c71 b83c fae6 22bd c011 c33d
000000b0: 8a77 9abd b0da 353e 959e ea3c b328 523e
000000c0: 732c 0d3e a26c 97bd 8c0d 92bb 9755 b53d
000000d0: f266 c63d 5821 4dbd 3aab 603d fdd8 eb3b
000000e0: 1c8e 99bd b785 62bd ffbf bcbc a066 8cbd
000000f0: d0d4 903d 6d61 2cbd 7050 6a3d 55c6 1e3d
00000100: 3adf 26bc 7cbe 813c 0fe4 abbd 7524 973e
00000110: 2359 9d3d 3399 b73d 9893 2abd 9020 c8bd
00000120: e37a e439 0b8b b53d 6d95 b13d db3c b33d
00000130: 491f 163d fbf0 a5bd a931 9abd b61c 3b3d
00000140: 52db 93bd 9bc5 ddbc d6f7 b439 06d8 cd3c

fc3.weight f4 [10, 84]
0.105146855 0.055034705 0.07962344 -0.0328692 0.12800294 -0.044223964 0.07237517 -0.20898427
-0.1861153 -0.26386172 0.006228151 0.30514598 0.062449582 -0.1252822 -0.029067783 0.026785465
0.2043084 -0.05060509 0.050345097 -0.13352218 0.24042255 -0.07764338 -0.07370609 -0.012479764
0.12716089 -0.090711564 -0.050374903 -0.123370215 0.09412239 0.0614557 -0.08373166 0.09202807
0.08574668 0.1227217 0.106077924 -0.031200662 0.0519567 -0.05928632 -0.042380627 -0.06839556
0.16312823 -0.011767164 0.007539389 -0.03177531 -0.02674903 -0.2174071 0.11388792 -0.27264306
-0.079548225 0.29613703 -0.0730516 0.22020403 0.06552333 0.46181843 0.055021107 0.37519684
0.05685314 -0.05510823 0.05394504 0.078189105 0.07582569 0.06443281 -0.033437133 -0.08203446
-0.039532613 -0.08085388 -0.050421603 0.07596243 0.1793951 0.017282372 0.1650173 -0.08950541
0.2668137 -0.16838114 -0.013148794 -0.27295348 -0.14919135 0.13563254 -0.044565655 0.11641672
-0.011732862 -0.11613172 0.09889432 0.0032565808 0.03867724 -0.13111454 -0.06305676 -0.04777179
-0.09626256 0.31590977 0.26303 0.07659223 0.34926283 0.099076055 0.10543276 -0.03747629
-0.22720277 -0.14571165 -0.06592431 0.102677785 -0.21234414 -0.020525808 0.039377023 0.013053845
0.09416056 -0.030880626 -0.13549069 0.2157446 0.085901484 0.036823414 -0.03207046 0.16160157
-0.0024079622 0.034915477 -0.0479784 0.34565276 0.10552015 -0.18527427 0.33742365 -0.031200023
-0.23643118 0.11275194 -0.09375157 0.13708752 -0.1168904 -0.107365154 0.039209265 -0.033387184
-0.02338037 0.0044527547 0.2200613 -0.25873238 -0.42655435 0.018145544 -0.17097746 0.1736352
-0.099588335 -0.12914242 0.16538018 0.079314634 0.038645767 0.05518374 -0.07249597 0.046760537
0.19464335 -0.2070146 -0.21952307 -0.093387134 0.055329897 -0.12760584 0.007110683 -0.34129456
-0.29995733 0.11300066 0.36094594 -0.005882404 -0.21115494 -0.11572729 -0.28408372 0.001993824
-0.08209043 -0.12354871 0.07636267 -0.009662943 -0.032067288 -0.039791197 0.11176836 0.099582076
0.114644475 0.0077575967 0.12780043 -0.106803946 0.038745098 -0.026771992 -0.059481394 0.20849797
0.0105754575 0.046142314 -0.018390559 0.0960499 0.14215814 -0.060704954 -0.1639304 0.1947484
0.15293027 0.032583147 0.11714758 -0.16737115 -0.029112171 -0.022631817 -0.07790488 -0.0011002701
0.041833308 0.0506967 0.11375465 -0.02713505 0.07932819 -0.17694388 0.196281 -0.13284533
-0.07708037 0.29485312 0.005966494 0.026108375 -0.13867944 -0.05011198 -0.17750375 0.05434362
0.22748552 -0.10511922 -0.08621326 -0.0829783 0.102434434 -0.114180356 -0.16383973 -0.10086409
0.28518027 0.11659994 0.2520217 -0.049755763 0.007844021 -0.03881988 -0.33651343 0.26661667
0.03302992 -0.063763514 0.051965274 -0.033049554 0.01716382 0.026141573 0.05978019 0.014384558
-0.032143388 0.21580985 0.04842172 0.03893437 0.099093825 -0.20052685 -0.22189315 -0.19601467
0.014221732 0.09511341 0.2431736 -0.059975155 0.2832194 -0.01805838 -0.10541172 0.16534665
-0.043273725 -0.01012505 0.052141163 0.058665223 -0.02131997 -0.15622976 0.050904714 0.09125664
00000000: 3c57 d73d 126c 613d 9d11 a33d dba1 06bd
00000010: 3413 033e 3024 35bd 6f39 943d f9ff 55be
00000020: 0295 3ebe e218 87be 8415 cc3b 183c 9c3e
00000030: 22cb 7f3d fa49 00be 8f1f eebc 316d db3c
00000040: 3936 513e 4847 4fbd a936 4e3d 0aba 08be
00000050: 5431 763e 7e03 9fbd 38f3 96bd ed77 4cbc
00000060: 7736 023e fcc6 b9bd ea55 4ebd 86a9 fcbd
00000070: 3dc3 c03d f9b8 7b3d 817b abbd 3679 bc3d
00000080: f59b af3d 8455 fb3d 623f d93d 8898 ffbc
00000090: 8cd0 543d 36d6 72bd 4f97 2dbd f912 8cbd
000000a0: 160b 273e 10cb 40bc fb0c f73b d426 02bd
000000b0: c820 dbbc f89f 5ebe 123e e93d df97 8bbe
000000c0: 2eea a2bd 469f 973e 149c 95bd 2a7d 613e
000000d0: 1831 863d 7773 ec3e d05d 613d cd19 c03e
000000e0: d7de 683d 2bb9 61bd 79f5 5c3d 9c21 a03d
000000f0: 804a 9b3d 59f5 833d 60f5 08bd af01 a8bd
00000100: f3ec 21bd b896 a5bd e286 4ebd 3192 9b3d
00000110: 59b3 373e c393 8d3c 4cfa 283e 9d4e b7bd
00000120: ce9b 883e 1b6c 2cbe 0a6e 57bc 8fc0 8bbe
00000130: 9ec5 18be 42e3 0a3e 7a8a 36bd e46b ee3d
00000140: 313b 40bc 78d6 edbd 1b89 ca3d 5c6c 553b
00000150: 076c 1e3d e442 06be e723 81bd 5aac 43bd
00000160: 4e25 c5bd edbe a13e deab 863e 63dc 9c3d
00000170: 94d2 b23e 63e8 ca3d 22ed d73d bd80 19bd
00000180: d8a7 68be 6f35 15be 5303 87bd bb48 d23d
00000190: be70 59be bd25 a8bc cd49 213d cbdf 553c
000001a0: 40d7 c03d 5ef9 fcbc 12be 0abe 27ec 5c3e
000001b0: 1eed af3d 26d4 163d 515c 03bd e27a 253e
000001c0: e7ce 1dbb 8803 0f3d 0085 44bd 66f9 b03e
000001d0: f31a d83d 8ab8 3dbe cbc2 ac3e 3197 ffbc
000001e0: 041b 72be 7dea e63d d300 c0bd ac60 0c3e
000001f0: 3c64 efbd 43e2 dbbd e599 203d 00c1 08bd
00000200: 3188 bfbc 6ae8 913b c057 613e 9278 84be
00000210: 5565 dabe f7a5 943c b714 2fbe 6dcd 313e
00000220: f8f4 cbbd e93d 04be 6c59 293e b66f a23d
00000230: 064b 1e3d 5808 623d c478 94bd fa87 3f3d
00000240: 9650 473e a3fb 53be a8ca 60be c141 bfbd
00000250: 9aa1 623d 1bab 02be bb00 e93b 29be aebe
00000260: 0294 99be e46c e73d e8cd b83e 2ec1 c0bb
00000270: 0039 58be 6e02 edbd 6c73 91be d1aa 023b
00000280: 071f a8bd 1b07 fdbd 0864 9c3d 5251 1ebc
00000290: fd58 03bd 18fc 22bd cfe6 e43d b0f1 cb3d
000002a0: b9ca ea3d 7033 fe3b 1ede 023e 07bc dabd
000002b0: 2eb3 1e3d f050 dbbc c3a2 73bd 7e80 553e
000002c0: af44 2d3c b9ff 3c3d cca7 96bc cfb5 c43d
000002d0: e791 113e c2a5 78bd 5fdd 27be 206c 473e
000002e0: c199 1c3e e875 053d 12eb ef3d 5863 2bbe
000002f0: a67c eebc 5c66 b9bc 988c 9fbd f036 90ba
00000300: 6759 2b3d 58a7 4f3d 33f8 e83d 534a debc
00000310: d176 a23d c730 35be e3fd 483e 9b08 08be
00000320: 50dc 9dbd fdf6 963e 9482 c33b 3be1 d53c
00000330: fc01 0ebe 3842 4dbd 8bc3 35be 6a97 5e3d
00000340: f7f1 683e bf48 d7bd 9490 b0bd 87f0 a9bd
00000350: 25c9 d13d 64d7 e9bd 9ac5 27be d591 cebd
00000360: 2603 923e f3cb ee3d fd08 813e b3cc 4bbd
00000370: 3584 003c 9801 1fbd 7d4b acbe fb81 883e
00000380: 624a 073d 7296 82bd 8ad9 543d f85e 07bd
00000390: 249b 8c3c da26 d63c 13dc 743d 36ad 6b3c
000003a0: c9a8 03bd 42fd 5c3e da55 463d a579 1f3d
000003b0: b4f1 ca3d e956 4dbe f537 63be 12b8 48be
000003c0: 4402 693c d2ca c23d 8002 793e 82a8 75bd
000003d0: 2202 913e 2bef 93bc 1ae2 d7bd a250 293e
000003e0: ca3f 31bd 8ae3 25bc f991 553d f24a 703d
000003f0: 38a7 aebc b2fa 1fbe 7681 503d c3e4 ba3d

fc3.bias f4 [10]
-0.30840835 -0.11955914 -0.023002664 0.31883478 0.22363922 -0.09034358 0.12759845 -0.06860566
0.055938568 -0.037408534
00000000: b3e7 9dbe 6cdb f4bd 1570 bcbc 503e a33e
00000010: ae01 653e 0e06 b9bd 2ba9 023e 2081 8cbd
00000020: d71f 653d b139 19bd
